diabetes.pt (torch, 6226 bytes, 6 tensors)

weight f4 [20, 8]
0.6855683 -0.6717011 0.2351204 -0.013446849 -0.653353 0.4304396 0.5849888 0.09784217
-0.19618599 0.26695195 -0.3364128 -0.16344021 0.24536566 -0.19590247 0.16710311 0.11463558
-0.14503062 -0.09304199 0.06049169 -0.4159396 0.07573207 -0.16743815 0.29580075 -0.25466147
-0.37170032 -0.01251463 0.1517962 0.16415188 0.02676507 0.18486378 -1.759325 -0.41275418
0.26417264 -0.10538086 -0.12172225 -0.123435184 -0.18394393 -0.0153849125 -0.19067895 0.10261753
-0.4714344 0.23587802 -0.10488274 0.030044235 0.09167759 -0.28722253 -1.3035868 -0.57350385
-0.49046132 -0.3759035 -0.26465198 -0.31725723 0.13928978 0.24523455 -1.4860085 0.46951813
0.010557314 0.2933398 -0.15151936 0.31012005 0.21547621 -0.20929931 0.2600719 0.23628604
-0.39461586 0.104035184 -0.37911782 0.23547624 0.045324013 -0.41710514 0.7450413 0.4704915
-0.043504775 0.16511773 0.06284139 -0.3611288 -0.0127738975 -0.3170538 -1.3887016 0.26032633
-0.15949045 -0.4390392 0.3031403 0.21880418 0.14288318 -0.22389297 1.4448274 -0.8093981
-0.10499821 0.27138692 -0.39567402 -0.55071855 -0.13137169 0.21819577 -0.4955231 -0.21939424
0.55321527 0.19589019 -0.31815973 0.38737556 0.18765613 -0.097728275 -0.856727 -0.34264186
0.03814246 -0.2350395 0.29922017 0.29774883 -0.08251908 -0.25028077 0.0855063 0.25381202
-0.69052255 -0.007822007 0.0935287 0.29031545 0.28199753 -0.2824758 1.0392278 -0.3094959
-0.25140652 0.31760094 0.030342106 0.15456772 -0.21360193 0.10703626 0.77609724 0.2600668
-0.21578215 0.2255816 0.014381178 0.016956411 -0.117724486 -0.22657247 -0.82762575 0.26110026
0.10648155 -0.24656753 0.032443345 -0.045393556 0.07644385 -0.13876458 0.21923432 -0.29843345
-0.00302201 -0.18254377 0.27486247 -0.30293944 0.077600926 0.31460413 -1.5229101 -0.21733378
0.5488815 -0.17473754 0.19076791 -0.15716685 0.0945158 0.09675629 1.0289397 -0.110277325
00000000: 6781 2f3f 9af4 2bbf 67c3 703e 2c50 5cbc
00000010: 2442 27bf 9462 dc3e d3c1 153f 7a61 c83d
00000020: fbe4 48be edad 883e 4c3e acbe df5c 27be
00000030: 2341 7b3e a89a 48be 141d 2b3e 0fc6 ea3d
00000040: e882 14be cd8c bebd 22c6 773d 09f6 d4be
00000050: 6a19 9b3d e874 2bbe 3273 973e fd62 82be
00000060: 814f bebe 2a0a 4dbc 7770 1b3e 6e17 283e
00000070: 6c42 db3c ee4c 3d3e 9031 e1bf 8454 d3be
00000080: a341 873e ecd1 d7bd 8449 f9bd 96cb fcbd
00000090: cc5b 3cbe 0011 7cbc 5841 43be 2429 d23d
000000a0: da5f f1be 028a 713e c3cc d6bd 541f f63c
000000b0: 76c1 bb3d d50e 93be efdb a6bf 26d1 12bf
000000c0: bf1d fbbe 6c76 c0be 7780 87be 8a6f a2be
000000d0: fba1 0e3e c41e 7b3e 8735 bebf ae64 f03e
000000e0: 96f8 2c3c a230 963e e427 1bbe 0ec8 9e3e
000000f0: cca5 5c3e 8f52 56be 2528 853e f8f4 713e
00000100: 170b cabe 6610 d53d bb1b c2be af20 713e
00000110: aca5 393d ce8e d5be 07bb 3e3f 43e4 f03e
00000120: 1032 32bd 9f14 293e fdb2 803d e0e5 b8be
00000130: 9c49 51bc e054 a2be f9c0 b1bf 7e49 853e
00000140: 7751 23be bfc9 e0be 3535 9b3e 340e 603e
00000150: f84f 123e 3344 65be 1bf0 b83f b734 4fbf
00000160: 4d09 d7bd 3af3 8a3e c995 cabe e4fb 0cbf
00000170: 4d86 06be b66e 5f3e 34b5 fdbe e2a8 60be
00000180: 849f 0d3f 7097 483e d5e5 a2be 1756 c63e
00000190: ee28 403e c325 c8bd 7652 5bbf c16e afbe
000001a0: 453b 1c3d 32ae 70be 6333 993e 8972 983e
000001b0: c3ff a8bd cd24 80be ed1d af3d a6f3 813e
000001c0: 16c6 30bf e027 00bc fa8b bf3d 3aa4 943e
000001d0: fb61 903e aba0 90be 6b05 853f 3f76 9ebe
000001e0: 5bb8 80be 979c a23e 0290 f83c 0047 1e3e
000001f0: 77ba 5abe d435 db3d 4fae 463f 7a27 853e
00000200: fff5 5cbe ddfe 663e 089f 6b3c 2ce8 8a3c
00000210: 8919 f1bd 9d02 68be 48df 53bf efae 853e
00000220: 0013 da3d 337c 7cbe 50e3 043d 98ee 39bd
00000230: 988e 9c3d 4d18 0ebe f67e 603e 45cc 98be
00000240: ea0c 46bb c1ec 3abe c6ba 8c3e e11a 9bbe
00000250: 3ced 9e3d cb13 a13e b8ee c2bf bf8c 5ebe
00000260: 7f83 0c3f 66ee 32be aa58 433e 59f0 20be
00000270: 8091 c13d 2928 c63d 4cb4 833f 14d9 e1bd

bias f4 [20]
-0.17192039 -1.2637658 -0.33913577 1.8365732 0.080328345 0.2880588 -0.4781149 0.40520197
0.8777652 1.8894191 0.10683694 0.40309435 -0.2498625 1.5968423 -0.52163714 -1.1976948
1.2034963 -0.055208296 2.165056 -0.28555486
00000000: e60b 30be 14c3 a1bf 34a3 adbe d514 eb3f
00000010: 3083 a43d 717c 933e 7acb f4be a276 cf3e
00000020: 38b5 603f 7cd8 f13f 53cd da3d 6262 ce3e
00000030: f5db 7fbe 5465 cc3f 038a 05bf 104e 99bf
00000040: 2b0c 9a3f 1822 62bd 4790 0a40 3f34 92be

weight f4 [20, 20]
-0.24704283 -0.02104332 0.0676668 0.2686194 -0.18001318 0.076086655 -0.557299 0.119821794
-0.13131425 0.14938645 1.3135853 0.20742561 0.010556559 0.04236956 0.083237894 -0.16631201
0.17627496 -0.11944218 -0.075966075 0.18171433 0.09524851 -0.042319916 0.12646173 0.2196311
0.09506208 0.19365492 -0.13378155 0.047018543 -0.19427384 0.08437646 0.8595314 0.3805268
0.060454965 -0.008167575 -0.22090769 -0.060536124 0.08100915 -0.15591198 0.31503767 -0.058598936
0.021811433 0.05923122 -0.044343833 0.04141777 0.20327401 0.003011909 0.09981278 -0.26278177
-0.104451336 -0.15341234 0.14848822 0.19023374 -0.063616164 0.041192733 0.08667738 -0.1433124
0.017064301 0.16119269 -0.20127495 -0.21146174 -0.3120289 0.026775492 0.039913755 -0.16461286
0.142566 -0.28010884 -0.110576235 -0.17411983 0.064405285 -0.3430799 0.18884398 -0.3261353
-0.06690284 -0.15544118 -0.08093795 0.09393474 -0.022282068 0.047580063 0.06180317 0.06577923
0.5100521 -0.06509881 -0.09833626 -0.11294189 -0.18264818 -0.6712656 0.6489532 0.16466889
-1.2084839 -0.14012666 -0.8172212 0.042792767 -0.25608653 -0.046845812 0.21412332 -0.037012752
-0.13262814 -0.011349484 -0.034239437 0.13103329 0.4465492 0.036111537 -0.054615874 -0.22018969
-0.0057946146 0.09439725 0.4135567 0.18258701 0.07477524 0.029650666 -0.9928906 -0.13757123
-0.16602984 0.14995101 -0.088904925 0.10515266 0.06626225 -0.16257675 -0.027596716 0.034293387
-0.16063651 -0.02912102 0.013509786 -0.08755266 0.1057848 -0.03602857 -0.556817 0.19949038
0.034378204 -0.08356392 1.1113108 0.11212578 -0.09576299 -0.10637464 -0.031670157 -0.1402261
0.13563003 0.1551468 0.24513069 0.11851172 0.17011054 0.046238855 -0.029995397 0.36147457
-0.12302731 -0.20693359 -1.3321475 -0.2794319 0.11075162 -0.026294526 0.38025916 -0.06848336
-0.25241882 -0.22655964 -0.26680955 0.15024455 -0.15878645 -0.10309565 -0.11223896 0.13954411
0.10140682 -0.2215684 -0.010765203 -0.053229228 -0.18361723 0.10924643 -0.12999281 -0.21202636
0.06982231 -0.017237116 0.08218154 -0.31568393 -0.051958308 -0.0467838 0.048927236 0.10273031
-0.15747079 -0.051296905 -0.07223766 -0.19740419 -0.10720166 -0.016852379 -0.10209309 -0.013494942
-0.1781485 -0.07593256 -0.112255484 -0.26215777 0.119333714 -0.050760105 0.14114447 0.11085445
0.03517154 0.14343241 -0.16285597 -0.061873063 -0.23444444 0.19816312 -0.048542272 -0.21383229
-0.4827825 -0.49768335 -0.35394156 -0.06913186 -0.17340696 -0.0058704936 0.7625328 -0.28135127
0.031827804 0.07311138 0.62195885 0.52611715 -0.512817 0.374682 -0.07355803 0.033722214
-0.10933351 -0.19230933 0.5213642 0.555759 -0.06872316 0.0135435155 0.12806453 -0.02170069
0.17586952 0.14742035 -0.28685108 0.19613475 0.057323292 -0.08178615 0.9526333 0.057233352
0.18407741 0.79161626 0.04293579 -0.23291239 -0.13520704 -0.1591304 -0.062299952 -0.22329198
0.044550315 0.0057784375 0.04201157 -0.32647952 -0.17202726 0.01645435 0.49370316 0.14937544
-0.08610686 -0.019457174 -0.8155287 -0.1335707 0.1094991 0.19333659 0.08064752 0.11334389
00000000: ccf8 7cbe 0a63 acbc e494 8a3d 7b88 893e
00000010: 6055 38be 52d3 9b3d 26ab 0ebf 2165 f53d
00000020: 3e77 06be c3f8 183e 9023 a83f 6167 543e
00000030: 6bf5 2c3c b48b 2d3d a178 aa3d b24d 2abe
00000040: 6c81 343e 1a9e f4bd 1a94 9bbd 5213 3a3e
00000050: a711 c33d a657 2dbd 2f7f 013e fae6 603e
00000060: e8af c23d 7a4d 463e 08fe 08be 8496 403d
00000070: b9ef 46be 91cd ac3d 400a 5c3f 69d4 c23e
00000080: a09f 773d 4bd1 05bc a035 62be baf4 77bd
00000090: 20e8 a53d 64a7 1fbe 9e4c a13e 7005 70bd
000000a0: e4ad b23c 709c 723d e1a1 35bd aea5 293d
000000b0: 1027 503e 7363 453b a56a cc3d 558b 86be
000000c0: 95ea d5bd 2018 1dbe 4c0d 183e a2cc 423e
000000d0: 3149 82bd b6b9 283d e983 b13d 7cc0 12be
000000e0: 6fca 8b3c b20f 253e 051b 4ebe 6d89 58be
000000f0: 41c2 9fbe 4758 db3c 9b7c 233d 4690 28be
00000100: d2fc 113e 6d6a 8fbe cb75 e2bd 784c 32be
00000110: ebe6 833d 2ba8 afbe 5160 413e 35fb a6be
00000120: 5b04 89bd f92b 1fbe ccc2 a5bd db60 c03d
00000130: e288 b6bc 50e3 423d 5225 7d3d 43b7 863d
00000140: c692 023f 8652 85bd 8564 c9bd 144e e7bd
00000150: 2008 3bbe 10d8 2bbf cc21 263f f69e 283e
00000160: 9aaf 9abf 5d7d 0fbe 6935 51bf 7847 2f3d
00000170: c61d 83be 65e1 3fbd 2543 5b3e af9a 17bd
00000180: accf 07be 30f3 39bc a73e 0cbd 972d 063e
00000190: 19a2 e43e b1e9 133d e5b4 5fbd 6879 61be
000001a0: c0e0 bdbb 5853 c13d b4bd d33e 17f8 3a3e
000001b0: c323 993d f4e5 f23c 142e 7ebf 79df 0cbe
000001c0: ba03 2abe c28c 193e c913 b6bd 475a d73d
000001d0: 81b4 873d 857a 26be 8212 e2bc 3977 0c3d
000001e0: e67d 24be 358f eebc 2658 5d3c cf4e b3bd
000001f0: b4a5 d83d b292 13bd 8f8b 0ebf 3547 4c3e
00000200: 29d0 0c3d 8f23 abbd 6f3f 8e3f 33a2 e53d
00000210: 631f c4bd f2da d9bd 91b8 01bd 6e97 0fbe
00000220: 99e2 0a3e cede 1e3e 8a03 7b3e 46b6 f23d
00000230: 7531 2e3e f464 3d3d e8b8 f5bc 3213 b93e
00000240: bef5 fbbd 66e6 53be cf83 aabf b311 8fbe
00000250: bfd1 e23d 9e67 d7bc 54b1 c23e 0141 8cbd
00000260: 0a3d 81be 40ff 67be 439b 88be b5d9 193e
00000270: ea98 22be d023 d3bd 8add e5bd a7e4 0e3e
00000280: 61ae cf3d d4e2 62be 8960 30bc e406 5abd
00000290: 2806 3cbe 98bc df3d d61c 05be 701d 59be
000002a0: 00ff 8e3d da34 8dbc cc4e a83d 53a1 a1be
000002b0: 3cd2 54bd 5fa0 3fbd ed67 483d 4564 d23d
000002c0: 0640 21be b41c 52bd 57f1 93bd 5324 4abe
000002d0: 8b8c dbbd 000e 8abc 2f16 d1bd e419 5dbc
000002e0: 8f6c 36be 8882 9bbd 34e6 e5bd 8b39 86be
000002f0: 3c65 f43d d4e9 4fbd 2d88 103e a807 e33d
00000300: 0810 103d f2df 123e b7c3 26be 9c6e 7dbd
00000310: 3412 70be 46eb 4a3e 43d4 46bd daf6 5abe
00000320: 452f f7be 5ad0 febe d437 b5be 0195 8dbd
00000330: 9891 31be 455d c0bb 5935 433f 460d 90be
00000340: df5d 023d 6bbb 953d b238 1f3f 9daf 063f
00000350: fa47 03bf 52d6 bf3e 98a5 96bd 4e20 0a3d
00000360: 3fea dfbd bdec 44be 2078 053f 3946 0e3f
00000370: babe 8cbd 9fe5 5d3c 5923 033e a5c5 b1bc
00000380: 2417 343e 5cf5 163e 25de 92be 8cd7 483e
00000390: d4cb 6a3d 7f7f a7bd c7df 733f 856d 6a3d
000003a0: ca7e 3c3e 5da7 4a3f 70dd 2f3d 9680 6ebe
000003b0: b773 0abe 14f3 22be 3c2e 7fbd a7a6 64be
000003c0: 647a 363d 0c59 bd3b 5314 2c3d 5328 a7be
000003d0: ea27 30be 46cb 863c a9c6 fc3e e0f5 183e
000003e0: cb58 b0bd a764 9fbc 7dc6 50bf c2c6 08be
000003f0: 1041 e03d 07fa 453e 872a a53d d720 e83d

bias f4 [20]
0.9680313 1.2976464 -0.08571007 -0.17796025 -1.2173439 -0.77604544 0.963408 -0.21497591
-0.07581279 -0.16300617 0.6039262 0.79222333 -0.8922447 -0.16989605 -0.473558 -1.5040907
-1.3665354 -0.14672726 0.11886689 1.3265983
00000000: e6d0 773f 4719 a63f c388 afbd 363b 36be
00000010: edd1 9bbf eaaa 46bf e8a1 763f a522 5cbe
00000020: bc43 9bbd 17eb 26be e89a 1a3f 26cf 4a3f
00000030: 266a 64bf 3bf9 2dbe 3276 f2be 0b86 c0bf
00000040: a2ea aebf ac3f 16be 7c70 f33d f9cd a93f

weight f4 [2, 20]
0.10694205 0.32966444 -0.14511769 0.14609247 -0.8135162 0.016178608 -0.03692176 0.11770602
0.26684204 -0.10186874 0.6176202 0.09319227 -0.22761987 0.018267596 0.009653787 -0.13756502
-0.10793329 -0.06149938 0.05582552 0.3349949 -0.0980146 0.042002365 -0.09613632 0.055473372
0.4993639 0.2028796 -0.12930095 0.08311539 0.1512827 -0.16168791 -0.6696318 -0.14670457
0.08426437 0.034161065 0.08509172 0.28210855 0.23988852 0.09325551 0.05627915 -0.25439912
00000000: 6f04 db3d c7c9 a83e bb99 14be 4499 153e
00000010: 9942 50bf 0089 843c 453b 17bd db0f f13d
00000020: 859f 883e 8fa0 d0bd 5c1c 1e3f 97db be3d
00000030: 2f15 69be eda5 953c eb2a 1e3c d8dd 0cbe
00000040: 210c ddbd c6e6 7bbd 4da9 643d 7484 ab3e
00000050: e1bb c8bd ac0a 2c3d 1ee3 c4bd 0c38 633d
00000060: a0ac ff3e abbf 4f3e 7867 04be 6738 aa3d
00000070: dae9 1a3e 8491 25be fd6c 2bbf b939 16be
00000080: cc92 ac3d 79ec 0b3d 9144 ae3d 8870 903e
00000090: 56a5 753e bffc be3d f784 663d 9a40 82be

bias f4 [2]
0.91845423 -1.2635536
00000000: d11f 6b3f 20bc a1bf
